…
wandb: 🚀 View run at https://wandb.ai/video-understanding/cmd/runs/rrvo0358
loading features >>> [Total: 3.1s] (gnode059:data/features/BERT/bert-large-cased/description/agg/agg_word.npy)
>>> Currently using 5.1% of system memory 5.8 GB/128.2 GB
loading features >>> [Total: 0.2s] (gnode059:data/features/DenseNet-161/pred_scene_25fps_256px_stride1_offset0/agg/agg_feats_mean.npy)
>>> Currently using 5.1% of system memory 5.8 GB/128.2 GB
train size: 23963 clips
>>> Currently using 5.1% of system memory 5.8 GB/128.2 GB
>>> Currently using 5.1% of system memory 5.8 GB/128.2 GB
val size: 3315 clips
MoEE(
  (aggregation): ModuleDict(
    (label): NetVLAD(
      (batch_norm): BatchNorm1d(10, eps=1e-05, momentum=0.1, affine=True, track_running_stats=True)
    )
  )
  (video_GU): ModuleDict(
    (scene): Gated_Embedding_Unit(
      (fc): Linear(in_features=2208, out_features=512, bias=True)
      (cg): Context_Gating(
        (fc): Linear(in_features=512, out_features=512, bias=True)
        (batch_norm): BatchNorm1d(1, eps=1e-05, momentum=0.1, affine=True, track_running_stats=True)
      )
    )
  )
  (clip_GU): ModuleList(
    (0): Identity()
  )
  (text_GU): ModuleDict(
    (description): Gated_Embedding_Unit(
      (fc): Linear(in_features=10240, out_features=512, bias=True)
      (cg): Context_Gating(
        (fc): Linear(in_features=512, out_features=512, bias=True)
        (batch_norm): BatchNorm1d(512, eps=1e-05, momentum=0.1, affine=True, track_running_stats=True)
      )
    )
    (scene): Gated_Embedding_Unit(
      (fc): Linear(in_features=10240, out_features=512, bias=True)
      (cg): Context_Gating(
        (fc): Linear(in_features=512, out_features=512, bias=True)
        (batch_norm): BatchNorm1d(512, eps=1e-05, momentum=0.1, affine=True, track_running_stats=True)
      )
    )
  )
  (text_clip): ModuleList(
    (0): Identity()
  )
  (moe_fc): Linear(in_features=10240, out_features=1, bias=True)
)
Trainable parameters: 12438551
Train Epoch: 1 [0/23963 (0%)] Loss: 0.118759
Train Epoch: 1 [160/23963 (1%)] Loss: 0.090915
Train Epoch: 1 [320/23963 (1%)] Loss: 0.100345
Train Epoch: 1 [480/23963 (2%)] Loss: 0.073051
Train Epoch: 1 [640/23963 (3%)] Loss: 0.079937
Train Epoch: 1 [800/23963 (3%)] Loss: 0.081565
Train Epoch: 1 [960/23963 (4%)] Loss: 0.086067
…
