…
loading features >>> [Total: 8.9s] (gnode012:data/features/BERT/bert-large-cased/description/agg/agg_word.npy)
>>> Currently using 8.7% of system memory 10.2 GB/123.3 GB
loading features >>> [Total: 0.3s] (gnode012:data/features/DenseNet-161/pred_scene_25fps_256px_stride1_offset0/agg/agg_feats_mean.npy)
>>> Currently using 8.7% of system memory 10.2 GB/123.3 GB
train size: 23963 clips
>>> Currently using 8.7% of system memory 10.2 GB/123.3 GB
>>> Currently using 8.7% of system memory 10.2 GB/123.3 GB
val size: 3315 clips
MoEE(
  (aggregation): ModuleDict(
    (label): NetVLAD(
      (batch_norm): BatchNorm1d(10, eps=1e-05, momentum=0.1, affine=True, track_running_stats=True)
    )
  )
  (video_GU): ModuleDict(
    (scene): Gated_Embedding_Unit(
      (fc): Linear(in_features=2208, out_features=512, bias=True)
      (cg): Context_Gating(
        (fc): Linear(in_features=512, out_features=512, bias=True)
        (batch_norm): BatchNorm1d(1, eps=1e-05, momentum=0.1, affine=True, track_running_stats=True)
      )
    )
  )
  (clip_GU): ModuleList(
    (0): Identity()
  )
  (text_GU): ModuleDict(
    (description): Gated_Embedding_Unit(
      (fc): Linear(in_features=10240, out_features=512, bias=True)
      (cg): Context_Gating(
        (fc): Linear(in_features=512, out_features=512, bias=True)
        (batch_norm): BatchNorm1d(512, eps=1e-05, momentum=0.1, affine=True, track_running_stats=True)
      )
    )
    (scene): Gated_Embedding_Unit(
      (fc): Linear(in_features=10240, out_features=512, bias=True)
      (cg): Context_Gating(
        (fc): Linear(in_features=512, out_features=512, bias=True)
        (batch_norm): BatchNorm1d(512, eps=1e-05, momentum=0.1, affine=True, track_running_stats=True)
      )
    )
  )
  (text_clip): ModuleList(
    (0): Identity()
  )
  (moe_fc): Linear(in_features=10240, out_features=1, bias=True)
)
Trainable parameters: 12438551
/home2/varungupta/CondensedMovies/trainer/trainer.py:68: UserWarning: Anomaly Detection has been enabled. This mode will increase the runtime and should only be enabled for debugging.
  with autograd.detect_anomaly():
Train Epoch: 1 [0/23963 (0%)] Loss: 0.121999
Train Epoch: 1 [160/23963 (1%)] Loss: 0.110445
Train Epoch: 1 [320/23963 (1%)] Loss: 0.083631
…
